…
 %>% \n  layer_dropout(rate = 0.4) %>% \n  layer_dense(units = 128, activation = 'relu') %>%\n  layer_dropout(rate = 0.3) %>%\n  layer_dense(units = 10, activation = 'softmax')\n```\n:::\n\n::: {.cell}\n\n```{.r .cell-code}\nsummary(model)\n```\n\n::: {.cell-output .cell-output-stdout}\n\n```\nModel: \"sequential\"\n________________________________________________________________________________\n Layer (type)                       Output Shape                    Param #     \n================================================================================\n dense_2 (Dense)                    (None, 256)                     200960      \n dropout_1 (Dropout)                (None, 256)                     0           \n dense_1 (Dense)                    (None, 128)                     32896       \n dropout (Dropout)                  (None, 128)                     0           \n dense (Dense)                      (None, 10)                      1290        \n================================================================================\nTotal params: 235146 (918.54 KB)\nTrainable params: 235146 (918.54 KB)\nNon-trainable params: 0 (0.00 Byte)\n________________________________________________________________________________\n```\n\n\n:::\n:::\n\n::: {.cell}\n\n```{.r .cell-code}\nmodel %>% compile(\n  loss = 'categorical_crossentropy',\n  o
…
